Android/ONNXDemo/app/src/main/assets/mnist_opset11.onnx (onnx, 21861 bytes, 6 tensors)

net.0.weight f4 [16, 1, 3, 3]
00000000: bb37 8a3e 965d 0c3d 7671 aebd 9877 78be
00000010: 4074 973d b86e 843e 3b57 843e 2827 78be
00000020: 1ef6 72be 2c12 993e dead 4a3e 80f6 6a3c
00000030: 78ed 18be c050 653e 0082 613e 2618 28be
00000040: bbf9 243e b69f a4bd 7f18 8d3e c09a 71bd
00000050: f4e1 a2be ab7f c13c 6b48 993d 686c 77be
00000060: 1b5d a9be 8652 e63d abdd a13d 70ea 7bbe
00000070: 88d9 78be 8b05 5a3d 36d5 403d 0018 5dbc
00000080: 60b3 2abd 5660 40bd 0090 6dba 40bf 923d
00000090: 13b3 673e 3e4c 1f3e 26f1 723e bb39 82bd
000000a0: 4343 04be 469f a03e 404a 3cbe 0056 cfbc
000000b0: fb52 7cbe 26eb b2bd ab10 1c3e 3edf 0fbe
000000c0: 3bff 8f3d 009c 883d b062 2fbe eb4c f5bd
000000d0: ab91 833c 6b79 85bd a818 583e a0f2 72bd
000000e0: 4b85 6c3d 7339 083e ae47 153e feea 43be
000000f0: aa61 81be 18c9 25be 100d 203e 56bf 46bb
00000100: 5657 8dbb f87b 02be 9890 1b3e d6e0 403c
00000110: 5b5e 97bd a0ed 623e d30f 6f3e fbac a53d
00000120: 9ef3 a13e 40b0 333e 56d2 8e3b 6089 30bd
00000130: 0014 62bb 3b01 9a3e 3354 1fbe 8efc 733e
00000140: 3b38 983e e616 17be 60ac 3a3e cb0c 2a3e
00000150: aa5d 90be b0b9 17be c6b4 f0bd be97 44be
00000160: e0a8 57bd b7e0 8f3e 2b36 f8bc 7821 7c3e
00000170: 4b96 353d 605a ddbd 4086 ecbc b6ea 53be
00000180: 5688 2abe 32a4 9ebe 366c 62bd 9ee0 6a3e
00000190: cb34 2c3e 6055 d9bd 2b81 e83d 6eae 013e
000001a0: 83ce 49be 53c7 6f3e e6a4 8fbe 40a8 38be
000001b0: 4b8b 96be 4031 e43d 2e0f 313e 40a8 77bd
000001c0: bb8b 283e 0008 bdbb 03fe 113e 9650 c6bc
000001d0: d33c 713e 8638 483e f349 953e b374 103e
000001e0: be51 363e 4b08 923d 03a3 933e a43f a5be
000001f0: e809 8e3e b00c 5e3e 5619 febd 1361 56be
00000200: 305a 5c3e ab55 a0bb d6e4 adbd 4093 903e
00000210: 76bb 683e ab4a 8e3c 9c2b a5be 6b69 963c
00000220: 96ef b3bc 5e56 923e aba8 723e ab76 23bc
00000230: 0bca e6bd f05d 363e f30c 06be 68a9 223e
0.26995644 0.034268938 -0.08517735 -0.24264371 0.0739522 0.25865722 0.25847802 -0.24233687
-0.23726699 0.29896677 0.19792888 0.014340997 -0.14934337 0.22394085 0.22022247 -0.16415462
0.1611089 -0.08038275 0.27557752 -0.05898547 -0.31813014 0.023620447 0.07484516 -0.24162447
-0.33078846 0.11246209 0.07903608 -0.2460115 -0.24301732 0.053227942 0.047078334 -0.013494492
-0.04167497 -0.046966873 -0.000906229 0.07165384 0.22626905 0.15556428 0.23724803 -0.063586675
-0.12916283 0.31371516 -0.18387699 -0.025309563 -0.2464103 -0.08736257 0.15240733 -0.14050004
0.07031103 0.0667038 -0.1712749 -0.119775616 0.01606067 -0.06517299 0.21103156 -0.059313416
0.057744306 0.13303165 0.14578125 -0.19132611 -0.25269824 -0.16189992 0.15629983 -0.0030326447
-0.00431339 -0.12742603 0.15191877 0.011772355 -0.07391044 0.22160959 0.2334588 0.08089634
0.31631178 0.17547703 0.00435857 -0.04309976 -0.0034496784 0.30079064 -0.15559463 0.2382681
0.297304 -0.14754829 0.18229818 0.16606443 -0.2819646 -0.14816928 -0.1175323 -0.1919851
-0.052651286 0.2810113 -0.030299267 0.24622142 0.044332784 -0.10808253 -0.02887261 -0.20695004
-0.1665357 -0.30984646 -0.05527898 0.22937247 0.16817014 -0.10611987 0.11352762 0.12664196
-0.19707684 0.2341588 -0.28055495 -0.18032932 -0.29403147 0.11142206 0.17290947 -0.06046319
0.16459553 -0.005768776 0.14257054 -0.024208348 0.23558359 0.19552812 0.2915798 0.14107017
0.1780462 0.07130488 0.28835306 -0.32275116 0.27741933 0.21684527 -0.12407176 -0.20935468
0.21518779 -0.004893025 -0.084909126 0.28237343 0.2272776 0.017369589 -0.32259834 0.018360814
-0.02196483 0.28581518 0.23697154 -0.009977023 -0.112690054 0.17809272 -0.13090877 0.15884936

net.0.bias f4 [16]
00000000: 96a1 d53c 0068 4dbd 96c3 7f3d ebfc 13be
00000010: 83c1 17be 0b8a eabd bbc1 f73d a6db 1e3e
00000020: 3b66 893d e6ef a1bd 6f52 a43e 3b7a 10be
00000030: fea9 7d3e 50e5 ec3d 0004 1abb 838e 0f3e
0.026078027 -0.05014801 0.062442385 -0.1445195 -0.14819913 -0.11452111 0.12097498 0.15513477
0.06708952 -0.07907085 0.32094142 -0.14109127 0.24771878 0.115671754 -0.002350092 0.14019208

net.3.weight f4 [32, 16, 3, 3]
00000000: 8ec2 263d 93bd 5cbd ac09 87bd 4b57 8abc
00000010: bbdb a03d 7640 a23d b78f 933d 10ef 9f3d
00000020: c646 0b3d 5639 b739 278f a43d b6b2 6dbc
00000030: 0e07 183d d650 083b 2674 a93c a385 793d
00000040: cee5 8b3d 0071 5dbd 6bed 72bc 2810 2cbd
00000050: 8bce 093c 9051 343d 2b76 8cbc fe21 6c3d
00000060: 7699 f5bc 206c 84bc d6d3 e1bb 8b48 db3c
00000070: d614 033b 4621 c9bc ab37 d6bc e0d5 503c
00000080: eb26 d73c ebf4 0c3c e6b2 21bd b3ec 1abd
00000090: 74c2 a13d abb2 a2bd 1bcc 0d3d 02fc 94bd
000000a0: 3345 98bd ae47 263d 4f70 9e3d 2359 4ebd
000000b0: 5309 4abd f60d 21bc b896 33bd 00b9 a7bc
000000c0: 6eb4 51bd b0d9 e73c 0ca0 883d 963f 4c3d
000000d0: 607b 1b3d 963f f63b a81c 1fbd af4f 913d
000000e0: be09 8cbd 80f2 943b 30d8 1dbd 0b21 993c
000000f0: 2be9 1dbd 5658 ef3c 8273 99bd d614 9dbd
00000100: ef4a 9c3d e87b 24bd 3005 863c eb69 403c
00000110: 5f24 963d 6bf1 88bb 50b1 56bd cb2c 983d
00000120: f4c4 8cbd 6bab 0c3c 3e8c 63bd 0008 bf39
00000130: 96c7 53bc 8241 9fbd bb81 30bd 3ed8 a83d
00000140: 30e7 563d 44b0 a1bd af09 a2bd 5fcc 8f3d
00000150: b778 90bd ce4b 3abd ae06 42bd c6e3 5dbd
00000160: a6ae c2bc eb7a 413c 76fb db3c 1bfa 02bd
00000170: bcf6 813d abb8 c5bc 8015 6cbc 5b41 76bd
00000180: 4615 debc 40f7 bebc 3b0c a5bc 10b1 a1bc
00000190: e3e6 773d 78a6 59bd 50ac 503d 83dd 583d
000001a0: eb4d 0dbd cb90 3c3d e0ae 5d3c fa45 803d
000001b0: a0ca eb3c f4b0 9fbd 732c a13d c0db 85bb
000001c0: 483c 543d 8ba2 bbbc 5387 5d3d 3296 8d3d
000001d0: 0680 6e3d 87df 943d d676 b83c a655 3a3d
000001e0: 9b31 d3bc 8c92 82bd c0f4 343c df3f 833d
000001f0: b853 54bd be88 9ebd d691 5bbd 0e18 9a3d
00000200: 737f 303d e0c9 843d d6ed 0b3d 36b1 66bd
00000210: 0bae bf3c abc4 3ebc 0356 803d 16b8 f03c
00000220: 2e19 95bd f88a 07bd fb61 5bbd 8b08 513d
00000230: 9bd1 a9bd 5373 903d 5682 dfbb 8032 4abb
00000240: e8cc 7bbd 2ba6 eb3c e0df 22bc 2372 73bd
00000250: bb93 483d 5052 13bd cbb2 2d3d 7389 173d
00000260: 96c9 7a3c 6212 993d d39a 1dbd b69e 4abd
00000270: 307f cc3c 6899 243d 00e3 343b 6af6 9c3d
00000280: 4a1a 8dbd abe3 ebba 13ec 89bd 88f2 29bd
00000290: 40bb cd3b ab84 66bc c021 e23b d286 9dbd
000002a0: f0c0 5bbd 969a edbc 1031 0fbd 4eca 593d
000002b0: 4bff a83c 204c 49bc e4df 8dbd d0c7 71bd
000002c0: 6ba1 a43c 168c 233d d026 c9bc 90d2 9dbc
000002d0: 10c3 d13c b658 7fbd 78c3 21bd ce83 4e3d
000002e0: fe47 75bd 94b7 8abd 1f78 80bd 4396 713d
000002f0: 964f da3c 30fa a73d f7a5 a3bd 1387 5fbd
00000300: 2ea4 7d3d c0df 093d 56dc dd3c db1c cf3c
00000310: 50f3 d8bc 2ee4 353d 562f 1c3c b0d2 84bc
00000320: 903a 4ebd 0b4c 403d 7681 f93c 3ab7 8f3d
00000330: 508b a4bd 40ae d43b 9f8e 83bd 489d 053d
00000340: 002e 963b 00ca 243a 63c7 30bd 8bd7 423d
00000350: 60b2 64bd 0000 d736 4b28 783d 6edb 38bd
00000360: abb6 6dbd 80d5 debc 00a6 023d 40bd e33c
00000370: c6e7 90bc 4862 093d f81e 48bd e66a 34bd
00000380: d69f ebbc 6be1 71bc 20d2 38bd 1b32 61bd
00000390: 30f6 523d 76ab d7bc 066c 8fbc e7cc 9bbd
000003a0: 5bb7 fd3c 58cb 2e3d 7015 973c 5bd7 373d
000003b0: 8018 dfbb 2b83 613b cb95 2d3c b073 17bd
000003c0: 9662 29bc 56cd 96bd 4031 253c b3df 76bd
000003d0: d036 cb3c 6377 00bd eb34 813c 0bc4 053d
000003e0: 76ab 0d3d 561d bebc 3007 d23c e8a2 9fbd
000003f0: 1bd6 84bc 1e2c 733d 46c2 9ebc a3da 52bd
0.040712886 -0.05389173 -0.06593642 -0.016887328 0.0785441 0.07922451 0.07205146 0.078092694
0.03400304 0.000349472 0.08035117 -0.01450794 0.037116103 0.0020800135 0.020685267 0.06091846
0.06830941 -0.054062843 -0.014827113 -0.042007595 0.00841106 0.044023097 -0.01714619 0.057649605
-0.029980402 -0.01616484 -0.006891708 0.02676799 0.0020001433 -0.024551999 -0.026149591 0.012746304
0.026263675 0.008603315 -0.03947725 -0.03782339 0.07898417 -0.079442345 0.03461848 -0.07274629
-0.07435074 0.040595703 0.07736265 -0.050377976 -0.0493253 -0.009829989 -0.04384491 -0.020473957
-0.05119746 0.028302044 0.066711515 0.049865328 0.037959456 0.0075149043 -0.038845688 0.070952766
-0.06837796 0.00454551 -0.03853625 0.018692514 -0.038552444 0.029216927 -0.074927345 -0.0766999
0.0763148 -0.04015723 0.016359895 0.011744003 0.07331156 -0.00417917 -0.052415192 0.074304186
-0.06873503 0.008585791 -0.055553667 0.0003643632 -0.012926003 -0.077761665 -0.04309247 0.0824437
0.05246657 -0.07894948 -0.07912003 0.070214026 -0.070542745 -0.04548245 -0.04736965 -0.0541723
-0.02376492 0.011809091 0.026853304 -0.0319768 0.06345889 -0.024135908 -0.014409423 -0.06012092
-0.027109753 -0.023311257 -0.020147434 -0.01973775 0.060522925 -0.053137273 0.05094558 0.052945625
-0.034498136 0.046036523 0.013530463 0.06263347 0.028783143 -0.07797423 0.07869806 -0.004085034
0.0518153 -0.022904655 0.054084133 0.06913413 0.05822756 0.07269197 0.022517603 0.045491837
-0.02578049 -0.06375608 0.011044681 0.06408667 -0.051837653 -0.07740925 -0.053605877 0.07524119
0.043090295 0.06483817 0.034162365 -0.056321345 0.02339842 -0.011643569 0.062664054 0.029384654
-0.07280193 -0.033091515 -0.05356024 0.051033538 -0.08291932 0.07053246 -0.006820957 -0.0030852854
-0.06147471 0.028765758 -0.009941071 -0.05943502 0.04896901 -0.03596717 0.04240684 0.036996316
0.015306851 0.07474209 -0.03847773 -0.049467765 0.024962991 0.040185362 0.0027601123 0.07664187
-0.0688978 -0.0017996927 -0.06734481 -0.04149106 0.0062784255 -0.014069716 0.006900996 -0.076917306
-0.053650796 -0.029004376 -0.0349589 0.05317145 0.020629546 -0.012286216 -0.069274694 -0.059028447
0.020096501 0.03992852 -0.02455464 -0.019265443 0.025605708 -0.06234046 -0.039493054 0.050418667
-0.05988311 -0.06773296 -0.06272911 0.05898119 0.026649278 0.08202016 -0.0799064 -0.054572176
0.061924152 0.03366065 0.027082603 0.025282314 -0.026483208 0.044407062 0.00953277 -0.016213745
-0.05034882 0.04694752 0.03045724 0.070173696 -0.08034384 0.006490499 -0.06423687 0.0326207
0.0045831203 0.0006286204 -0.0431589 0.04756884 -0.055834174 6.4074993e-06 0.0605853 -0.04513114
-0.058035534 -0.027201414 0.03189659 0.027800202 -0.017688643 0.033540994 -0.04885766 -0.04404726
-0.02876274 -0.0147632165 -0.045122266 -0.054979425 0.051504314 -0.026326876 -0.017507564 -0.076074414
0.03097122 0.042674392 0.01844284 0.044883113 -0.0068083405 0.0034410458 0.010594795 -0.036975563
-0.010338446 -0.073633835 0.010082543 -0.06027193 0.02480641 -0.031363856 0.015772304 0.032657664
0.034587346 -0.023207348 0.025638193 -0.07794744 -0.016215375 0.059368245 -0.019379746 -0.05147804

net.3.bias f4 [32]
00000000: 3612 20bc 36ea 0abd 53e3 82bd c035 d9bb
00000010: 2fe9 98bd ae9b 3dbd 00bc eabc 283b 92bd
00000020: 100f 5a3d 9f4a 8cbd 3056 8abd eb19 f33c
00000030: 0b85 653d d040 9b3d 4693 0a3d bb1b 5b3d
00000040: 56e5 143c 106e 823d 0619 f13c 482d 153d
00000050: 5664 b33b 7f3c 95bd 8319 a7bd 50b6 8cbd
00000060: d0ca a23c 879d 91bd 20cc 5d3c a630 673d
00000070: b632 003d decc a9bd d6ae 30bc 56b1 b83b
-0.009769967 -0.033914767 -0.06391015 -0.006628722 -0.07466351 -0.046291046 -0.028654099 -0.071401894
0.05323702 -0.0685017 -0.0675472 0.029675445 0.056035083 0.075807214 0.033831857 0.053493243
0.009087881 0.06368649 0.029430877 0.036420137 0.0054746075 -0.07286929 -0.08159163 -0.06870711
0.0198721 -0.07110124 0.013537437 0.05644288 0.03129836 -0.082910284 -0.010783872 0.0056363745

net.7.weight f4 [10, 32]
00000000: e1e7 313e 8a92 00bd dba1 713d 73b4 31be
00000010: e30d c0bd 29c4 84bd 0390 123d fddc babd
00000020: 3bee a63d d4f5 ea3d 6d71 e33c faf6 34be
00000030: 91be 413d 0c72 1c3e ebbc c43b a1ba bc3d
00000040: 8d44 be3d f134 babd 56f1 84bd ab1d 6d3c
00000050: 5c88 703c 32a6 34bd 1d72 1f3e ef02 9dbd
00000060: bb1f 0b3c bf0e 383d eb33 29be 6f6c dcbd
00000070: a1a8 01bd 7a9d 973d 27db 60bd 2b0c 47bd
00000080: 2ac2 4f3d c0f3 2b3e 5036 0cbe 6b2c 863d
00000090: 05e4 283d 712c 2f3e f536 913d b28e bf3d
000000a0: 857a 023e b68a 27be d2fe a73d 3f88 cbbd
000000b0: 9194 873d 3037 cebd a51f 183e 54d5 193e
000000c0: debe d63d 0fca d23c dfff 0dbe 6963 de3d
000000d0: d7de eb3d f571 133e ff03 2f3e fbf4 a23d
000000e0: 428d bf3d 14c4 6ebc 35dd 1b3e 647f 21be
000000f0: 65a0 f8bd 7f64 1d3e e5f8 f1bd a023 f33d
00000100: 2962 1bbe 61c3 08be 5cd5 a8bd 012b 133d
00000110: b5be c03c 4c1f 15be b710 03be 7fc0 15be
00000120: b690 143e 0f89 37bd 7d68 2e3b 9e37 1cbe
00000130: 8bb4 f4bd 7d7c c13d 261b 04bd c789 fa3d
00000140: 29b6 bb3d bcf2 9c3d d82c 1abe 5935 f73a
00000150: 961c 8a3d ef3c 263d f3ec f83c 1521 93bd
00000160: 2686 893d 7082 8fbc 0b59 2ebd ed83 a33c
00000170: 5386 fb3d 6497 15be c800 d3bd 4ca4 9f3d
00000180: 9bc7 b9bc e967 333c 013d 32be 836c 0a3e
00000190: fc5a b13d cd90 0dbe 5b30 ecbd 75c5 2d3e
000001a0: 8b75 3cbb 79ea e73d 0b2b 6c3c fae4 513d
000001b0: 731b 773d d9b0 c13c 034c 183e b3af b8bd
000001c0: 8dd2 ecbd a5ee 3ebd 904d 3d3c 3bc4 1ebe
000001d0: 4940 6bbd 214a da3d 7791 f0bc 4722 a7bd
000001e0: ea0f 04be 581e 343c f6c9 cfbc 2e5b ea3a
000001f0: 8862 b53d 1ea8 11be 7eb0 dabd 0b1b 14be
00000200: 9c9b 3d3c c19b 86bd c2e0 853c 274d 24be
00000210: 9077 cdbd 0296 2fbe 760f a33d 873c f3bb
00000220: dd22 33be 54d5 06bd 32a6 d63d 70f3 43bd
00000230: 3b9e 4bbc 2f87 60bd 4f4d 86bd 01d9 33bd
00000240: a8cc cdbd 7957 a6bd e6b0 08be 1034 243e
00000250: 5742 38bd 8abc 7fbc d9c9 8fbd 38c9 acbd
00000260: 2eb0 0cbe 7970 a03c bc19 efbd b6af 92bd
00000270: a09b b6bc 7189 2abe d6d0 b8bd 46e7 b03c
00000280: 80aa 203e 7bf4 1c3d a634 043d c32d a03d
00000290: 5722 d43d 4aa0 253e 5ae0 303e 2296 943d
000002a0: 1c91 9cbb 42b9 01be 22fe 9d3d 1955 86bd
000002b0: 0a21 d6ba 9218 5b3d 66cb 8e3d 7a9e 683d
000002c0: 9639 df3d 0e8a d4bd 4268 e93d 7dbe 113d
000002d0: ef40 16be a9cb fabd 796e 31be aa38 e0bd
000002e0: 95a8 efbd 30c5 32bd 79d1 803c 493a 90bc
000002f0: d5f4 14bd f662 063e 33d4 02bc 623c 8abd
00000300: 3192 123e 8c21 86bd 82f7 2c3e a3d1 933d
00000310: 4668 32be eb33 133e e359 83bd 49ff c03d
00000320: a147 f8bd 42ee 27be b327 2ebe e417 9fbd
00000330: 27f6 183e 445e 4abc a8f8 1b3e 6df6 1dbe
00000340: 1896 dd3c 912b 843d b299 553d 8e51 f5bc
00000350: d8b4 39bd 4d09 183d c342 27bd db3f 2b3e
00000360: 70ee 1dbe 8bb4 313e 750d 1ebe 9019 cbbb
00000370: 132b 5e3d 5581 afbd ab6a 45bd 9709 0a3e
00000380: 1ae4 90bd 38b0 293c bc84 c6bd 3402 debd
00000390: 5b9a cfbd a119 c43d 2cac e3bd 27b6 92bd
000003a0: f9a2 223e de7f 00be f94e 1e3e 9817 79bb
000003b0: 6993 fc3d 9140 1f3e 7d79 1c3d 524b 2f3e
000003c0: aa5b 34bd 3a65 20be 3033 f43d bba9 9b3d
000003d0: d811 34be 8993 223e 4beb 1abe ad70 263e
000003e0: 181b 303c 2f7d 02be a17a 29be 2213 063e
000003f0: 7ce0 9c3b f38d 19be 9521 4bbd 7d73 1cbe
0.17373611 -0.03138975 0.058992248 -0.17353992 -0.09377649 -0.06482727 0.03578187 -0.091241814
0.081509076 0.11472669 0.027764047 -0.17672339 0.04730088 0.1527788 0.006003966 0.09215284
0.09290419 -0.09092129 -0.06491344 0.014472405 0.014680948 -0.04410381 0.15570875 -0.07666575
0.008491452 0.044935938 -0.16523711 -0.107628696 -0.031654958 0.07403083 -0.0548965 -0.04859559
0.05072228 0.16792202 -0.13692594 0.06551441 0.04123308 0.17106797 0.0709056 0.09353389
0.1274205 -0.16361508 0.082029 -0.09938096 0.06620134 -0.1006912 0.14855821 0.15022784
0.10485624 0.025731115 -0.13867138 0.10858805 0.11517113 0.1439894 0.17091368 0.079568826
0.09353115 -0.014573116 0.15221103 -0.15771252 -0.12139968 0.15370367 -0.11815051 0.11872029
-0.15174164 -0.13355781 -0.0824382 0.035929684 0.023528436 -0.1456272 -0.12799345 -0.14624213
0.14508328 -0.044808444 0.0026612573 -0.15255591 -0.11948498 0.094475724 -0.032252453 0.1223331
0.09165604 0.076634854 -0.15056169 0.0018860503 0.067437336 0.040585455 0.030386424 -0.07184044
0.0671504 -0.017518252 -0.042565387 0.019960368 0.1228148 -0.14608532 -0.103028834 0.07795009
-0.022678187 0.010950067 -0.17406084 0.13517956 0.08659932 -0.13824768 -0.115326606 0.16969855
-0.0028756585 0.11324019 0.014414559 0.05124376 0.060328912 0.023643898 0.14872746 -0.09017887
-0.11563597 -0.046614308 0.011554137 -0.15504543 -0.057434354 0.1065867 -0.029366238 -0.08160835
-0.12896696 0.010993563 -0.025364857 0.0017879957 0.08856684 -0.14224288 -0.106781945 -0.14463441
0.011572745 -0.065726765 0.016342524 -0.16045056 -0.1003257 -0.17147067 0.07961933 -0.007422987
-0.17493768 -0.03291829 0.10480918 -0.047839582 -0.012427862 -0.05481642 -0.06557714 -0.043908123
-0.10048801 -0.08122153 -0.13348731 0.16035485 -0.04498514 -0.015608916 -0.07020921 -0.08436817
-0.13739082 0.019584881 -0.1167483 -0.071624205 -0.022291005 -0.16653992 -0.09024207 0.021594655
0.1569004 0.038319092 0.032276772 0.07821228 0.10358112 0.16174427 0.17273083 0.07255198
-0.0047780406 -0.12668326 0.077144876 -0.065592 -0.0016336751 0.05349023 0.06972389 0.05679176
0.108996555 -0.10377894 0.11396839 0.035582054 -0.14673208 -0.12245876 -0.17327298 -0.10948308
-0.11702076 -0.043645084 0.015724884 -0.017605918 -0.036366303 0.13123688 -0.007985163 -0.06749798
0.1431358 -0.06549367 0.16891292 0.072177194 -0.1742259 0.14375274 -0.06413629 0.09423692
-0.12123037 -0.16399482 -0.17007332 -0.07768229 0.1493765 -0.012351576 0.15231574 -0.15426035
0.02704911 0.06453622 0.05214853 -0.029946115 -0.04533848 0.037118245 -0.040835153 0.16723578
-0.15422988 0.17354028 -0.15434821 -0.0061981156 0.054240298 -0.0856959 -0.04819743 0.1348022
-0.07074757 0.010356955 -0.09693286 -0.10840264 -0.10136863 0.09575201 -0.111168236 -0.07163649
0.15882482 -0.12548777 0.15459813 -0.0038008448 0.12332804 0.15551974 0.038201798 0.17118576
-0.04403273 -0.15663615 0.11923826 0.07600733 -0.17584932 0.15876593 -0.1512882 0.1625392
0.010748647 -0.12743066 -0.16550685 0.13093236 0.004787503 -0.14995556 -0.049592573 -0.1527843

net.7.bias f4 [10]
00000000: 3848 b2bd 0f1f 8d3c 2a00 a2bd c6e4 163e
00000010: 1ad7 9a3d 6d3d a7bd 4def 23be edd3 8c3c
00000020: dd7e e7bd 34db 30be
-0.08705181 0.017226724 -0.079101875 0.14735708 0.075605586 -0.08166013 -0.16009255 0.017190898
-0.11303494 -0.1727112
