windows_cpp_runner/model.onnx (onnx, 249136 bytes, 10 tensors)

conv1.weight f4 [6, 1, 5, 5]
000000 8d 87 48 3e 88 f2 35 3e 8f b5 07 3e db 28 1a be
       0.19582959 0.177683 0.13252853 -0.15054648
000010 67 59 f7 bc 0a a6 10 3e 02 f8 1b be 43 6a 48 be
       -0.030193998 0.14125839 -0.15231326 -0.19571786
000020 4a c4 b5 bd c3 b2 38 3e 47 8e 30 3e 57 2c fa 3d
       -0.0887533 0.18036942 0.17241774 0.122154884
000030 50 e5 33 be 02 39 31 3e 8b 5d 10 3e df b6 1a 3e
       -0.17567945 0.17306903 0.14098184 0.15108822
000040 f3 91 18 be 2d 52 0c 3e 75 4d 43 3e 5a a5 b1 bd
       -0.14899425 0.13703223 0.19072516 -0.086741164
000050 78 98 13 be 48 35 3b be b3 e0 35 3e aa 42 81 3d
       -0.14413631 -0.18282044 0.17761497 0.06311543
000060 27 06 02 3d b7 c4 f9 3d c2 65 2e 3e 0d a8 26 bd
       0.03174415 0.121957235 0.17031005 -0.04068761
000070 63 82 ad bd 0f 7e 49 3e 08 d4 46 be 1a 3d d4 3d
       -0.08472135 0.19676994 -0.19416821 0.10363217
000080 60 68 46 3e 80 87 eb bd ea e5 fd bd 6d 5b 6d 3d
       0.19375753 -0.11500454 -0.12397368 0.05794852
000090 67 d0 39 3d c0 30 2b 3e 70 e4 b4 bd cd 7a 96 bd
       0.045364764 0.16717815 -0.088326335 -0.07347641
0000a0 7b be 1c be 40 43 dd 3c f5 c0 0d be 33 4b 3c bc
       -0.15307038 0.027009606 -0.13843139 -0.011492538
0000b0 b3 e5 0c bc cd 50 b8 bb 47 45 41 3d 3b 86 01 3e
       -0.008599686 -0.0056248666 0.04718521 0.12648861
0000c0 4d 04 43 3d ea 6a 08 be 20 39 d4 bd 3d 59 98 bd
       0.047611523 -0.13322034 -0.10362458 -0.07438896
0000d0 10 26 8c 3d 73 0b 9c 3c 20 79 ab 3d da 0b dd bd
       0.06843197 0.019048428 0.08372712 -0.10793276
0000e0 1a 04 7c bc 7d 43 fa 3d 73 5c 7b bd 80 e7 c6 3d
       -0.015381837 0.122199036 -0.061367463 0.09712124
0000f0 03 b7 2c 3e 28 a7 08 3e a7 07 ac 3d d3 af d4 bd
       0.16866688 0.13345015 0.08399897 -0.10385098
000100 aa 12 11 3e 4a 81 bb bd 53 4f 03 bd 97 bd 35 3e
       0.14167276 -0.09155519 -0.03205807 0.17748104
000110 db 83 1e 3e b8 44 2a be 35 d1 17 3e c0 a9 14 be
       0.15479986 -0.16627777 0.148259 -0.1451788
000120 53 94 19 be 13 94 69 bd e5 ac 2f 3e c0 1c b2 3d
       -0.14997987 -0.05702598 0.17155798 0.0869689
000130 cf f3 11 be f3 6f 76 bd 27 fc 2a be 5a 30 c0 bd
       -0.14253162 -0.060165357 -0.16697751 -0.09384222
000140 48 72 1f 3e 0d 27 be bc a0 53 4c 3d 4a da 08 3e
       0.15570939 -0.02321198 0.04988444 0.1336452
000150 a0 3e ad bd 4f bb 3e be bf 7d 43 be 4d 43 d0 3d
       -0.084592104 -0.1862614 -0.19090937 0.101690866
000160 27 3f 97 3d 75 1b 24 be 7a 66 20 3d 00 59 2d 3c
       0.07385092 -0.16026099 0.03916023 0.010580301
000170 b2 bd 4a 3e 8a dd 9d bd 50 5c 14 be da 09 25 3e
       0.19798926 -0.07708271 -0.1448834 0.1611704
000180 3b 01 4b be 00 dd 82 3b ea b2 94 bd cd cc b9 3c
       -0.19824688 0.0039936304 -0.07260688 0.022680664
000190 97 96 47 3e 9f 99 08 be dd e7 83 bd 4d 56 7f 3d
       0.19491039 -0.13339852 -0.06440709 0.062338162
0001a0 20 75 65 3d 1a 10 2f 3e 2a 0a a2 bd 22 d4 04 be
       0.056019902 0.17095986 -0.07912095 -0.12971547
0001b0 bd 6b ab bd 47 cc 17 3e 12 13 16 be 67 c1 e4 bd
       -0.08370159 0.1482402 -0.14655712 -0.11169701
0001c0 1a ce a7 3c b3 13 10 3e 73 27 40 bd ed 09 0e 3e
       0.02048402 0.14070015 -0.04691262 0.13870974
0001d0 20 a0 e2 3d f3 14 42 3d 43 9a 03 3e 9a a6 f4 3b
       0.11065698 0.04738326 0.12851815 0.0074661495
0001e0 53 6d b6 3d a0 bc 1d 3e e3 6c 91 bd d3 a2 4a 3d
       0.08907571 0.15403986 -0.071008466 0.049471688
0001f0 3a 58 3c 3e 95 99 39 be 72 d1 0d be f0 a5 16 3e
       0.18393031 -0.18124993 -0.13849428 0.14711738
000200 90 2c a8 bd a0 1f 3d be d3 49 45 bd 6a 94 1d 3e
       -0.082116246 -0.18469095 -0.048166107 0.15388647
000210 00 0e e4 bc 00 63 85 3d 47 4d 7d bd 8a 79 91 bd
       -0.027838707 0.065130234 -0.061841276 -0.0710326
000220 9d 86 b7 bd 08 88 23 be 35 3c 17 be 73 1e 3b bd
       -0.08961222 -0.1596986 -0.14769061 -0.045683336
000230 d7 7c a4 bd c2 bb 2b 3e 57 87 09 be 9a f0 8b 3c
       -0.08031624 0.16770843 -0.13430534 0.017082501
000240 c3 70 fc bd 93 3d 78 bd 9d 10 0e 3e e0 f0 7c bd
       -0.12326195 -0.060605597 0.13873525 -0.061753154
000250 f0 99 d6 3d 8d d9 59 bd
       0.1047858 -0.05318599

conv1.bias f4 [6]
000000 c5 8e 3c be 8a 1f 17 be 53 84 6d bd 33 31 28 be
       -0.18413837 -0.14758125 -0.057987522 -0.16425018
000010 53 4b c3 3d 0d 32 9d 3d
       0.09535851 0.07675562

conv2.weight f4 [16, 6, 5, 5]
000000 6f 9d 18 3d 59 f8 80 bd cf 53 87 bd 18 f5 d6 3b
       0.037259515 -0.062973686 -0.06607782 0.006559979
000010 7f aa 48 bd 6b 3c 7b 3b 49 91 04 3d 35 52 7a 3d
       -0.048990723 0.0038335572 0.032365117 0.061113555
000020 9a 74 9e bd ca 0b 1f 3d 14 05 1e 3d a8 39 8f 3d
       -0.07737084 0.038829602 0.03857906 0.06993419
000030 f9 5f 7a 3d b6 94 d3 bc 92 ab 79 bd 40 61 14 bd
       0.061126683 -0.025827747 -0.060954638 -0.036225557
000040 32 ad 88 3d 23 a5 8e 3d 8e 82 0c bc 55 7b 24 bd
       0.066736594 0.06965091 -0.008576049 -0.04015668
000050 2e 3d 7a 3b 7d 86 c8 bc 28 a0 ad 3c 08 ba ec 3c
       0.0038183439 -0.024478192 0.021194533 0.0288973
000060 a7 8b 12 bc b1 ce 1e bd bd 22 19 3c 23 e5 b4 3c
       -0.0089444285 -0.038771335 0.009346661 0.022081917
000070 45 c5 9d 3c 25 d4 9e bc 76 17 95 3b 6a 70 9f bd
       0.019259105 -0.019388268 0.004549916 -0.07785113
000080 7e 6d 78 3c 35 5a a2 3b ad 75 2c bd 41 8b 6b bc
       0.015162824 0.004954601 -0.042104412 -0.014376462
000090 11 36 85 bd ed 1f 3f bd e6 4e 25 3c 58 c6 8c bc
       -0.06504453 -0.046661306 0.010089612 -0.017184421
0000a0 27 82 ad bb da 45 9b 3c 8d 0f 99 3c 13 18 27 bd
       -0.0052950564 0.018954206 0.018684173 -0.040794443
0000b0 53 cc 08 3d fd eb a0 bc 62 cb 82 3b 0d e3 45 bd
       0.033397984 -0.019643778 0.0039915303 -0.048312236
0000c0 89 1f e6 3b f5 70 9a 3d 7d a5 94 3d d0 f0 4b 3d
       0.0070228023 0.07541076 0.07258127 0.049790204
0000d0 4e 47 2f 3c 9b 3d 20 bb a1 91 92 bd 8d 7f 32 bd
       0.010698153 -0.0024450782 -0.07156683 -0.043578673
0000e0 1d cd 82 bd 2a 73 95 3d b2 c4 66 bd 47 b3 02 bd
       -0.063867785 0.072973564 -0.056339927 -0.031909253
0000f0 84 33 96 bd 51 61 c3 3c 4f 2d 0b bd 40 74 93 bd
       -0.073340446 0.023850115 -0.033978757 -0.07199907
000100 f0 82 95 bd 01 d0 0f 3d d8 e1 47 bb 86 84 3c 3d
       -0.07300365 0.035110477 -0.0030499604 0.04602482
000110 55 f4 b8 bc 44 0a 04 3c 89 89 9e bc 2b cd 06 bd
       -0.022577444 0.008059088 -0.019352691 -0.032910507
000120 4a 9f 12 3d 75 85 73 3d 6a 7f 17 bd 7e f1 94 bd
       0.03579644 0.059453446 -0.036986746 -0.072726235
000130 5a ca 06 3d ca af 57 3d da c8 9b 3d c9 02 04 bd
       0.03290782 0.05265788 0.07606669 -0.03222922
000140 ee cd 2d bd 45 0b 50 3d 98 35 f4 bc c2 98 17 3d
       -0.042432718 0.050791997 -0.029810712 0.037010916
000150 e9 04 00 3d 01 f9 71 bd b7 52 68 bd 23 74 c8 3c
       0.031254683 -0.05907536 -0.056719508 0.02446944
000160 df b4 69 bd df 96 74 3d d1 2b 67 3d fa ff bc bc
       -0.057057258 0.059714194 0.05643827 -0.023071278
000170 2d 71 e2 bc 66 48 88 3d 5e 50 63 3b fc 11 4c 3d
       -0.027641857 0.06654434 0.0034685354 0.04982184
000180 c4 d5 83 bc 7d 50 74 3d cc 98 c3 3a 4f 08 83 3d
       -0.016093142 0.059647072 0.0014922856 0.06398069
000190 1d 42 5c 3b 91 36 88 3d 56 60 9f 3d 35 65 0a bd
       0.0033608743 0.06651033 0.077820465 -0.033787925
0001a0 0a 3a 46 3d e4 b9 9b bd e4 ed 75 3c 03 47 fb bc
       0.048395194 -0.07603815 0.015010331 -0.03067351
0001b0 ae 17 0e bd 98 ce a2 bd f1 05 09 3d 7e 29 5b 3d
       -0.03469055 -0.07949561 0.03345293 0.053506367
0001c0 0e e1 ac bc 06 13 4b 3d 5c 5a 88 bd 77 40 51 3d
       -0.021103408 0.04957869 -0.0665786 0.05108687
0001d0 bd 80 15 bd e4 c2 21 3d 94 05 a7 3c bf 2e 18 bd
       -0.036499728 0.039492503 0.020388402 -0.037153956
0001e0 8a 88 eb bc 50 ca 95 3d 03 fd 04 bd 0c 55 b1 3c
       -0.02875163 0.07313979 -0.032467853 0.021646999
0001f0 6a d7 5a bd 7c 48 81 3d 99 86 89 3b ef aa bf bc
       -0.05342809 0.063126534 0.0041969535 -0.023396937
000200 77 5f 11 3c ab f0 fa bc 8a 6f 5b 3d ae 66 49 bd
       0.008872858 -0.030632338 0.05357317 -0.04917019
000210 03 d9 a0 3d fa 20 ea bc 6f f2 b8 bb 5d c6 68 3d
       0.07853892 -0.028580178 -0.0056441347 0.0568298
000220 cc c6 87 bd c8 a9 92 bd cb 6f 7f bd 3d 6c 8c bd
       -0.06629714 -0.071612895 -0.062362473 -0.06856582
000230 eb 4b 64 bd e1 3c 9c 3d a2 e0 6c 3c 00 af 2a 3d
       -0.055736464 0.07628799 0.0144578535 0.0416708
000240 01 26 10 3d 54 70 d9 3b 4f d0 a0 3d c5 f4 aa 3c
       0.035192493 0.006635705 0.07852232 0.020868668
000250 68 48 89 3d 06 8f 85 bd 0e 1d 46 bc d5 eb 2c bd
       0.067032635 -0.0652142 -0.012091888 -0.042217094
000260 99 71 14 bd d9 38 1b bd 1b 8b 21 bd 1a 03 a3 bc
       -0.036241148 -0.03789601 -0.039439302 -0.01989894
000270 44 96 43 bd 66 bb 0b 3d c2 12 4f 3c 0e bb 71 3d
       -0.047750726 0.034114264 0.01263875 0.05901628
000280 51 ad 45 3d 81 8e 7f bd a4 65 46 3d be e5 8e 3b
       0.04826099 -0.06239176 0.048436776 0.0043608835
000290 8c aa d9 3c 63 72 80 3d 4a 6d 13 3d 47 df 83 3c
       0.02657058 0.062718175 0.035992898 0.016097678
0002a0 d2 53 27 3c 1a 72 94 3d 01 50 6a bd f0 87 6f 3d
       0.010212855 0.07248326 -0.057205204 0.05847925
0002b0 56 e4 8b bc a7 96 54 3d 7f 70 7d 3c 1e 87 ff 3c
       -0.017076652 0.051901486 0.015468716 0.031192359
0002c0 f7 18 90 bd ca 72 59 bd fc 8f 37 bd 2c 18 32 3d
       -0.07036012 -0.053087987 -0.04481505 0.043480083
0002d0 9c f9 41 bc 62 52 9b 3c c3 6e 02 bd 2d 72 43 3d
       -0.011839297 0.018960182 -0.03184391 0.04771631
0002e0 d5 3c f5 3b cb e8 92 bc d2 69 eb bc 6e c6 92 3d
       0.0074840584 -0.01793327 -0.028736982 0.07166754
0002f0 d7 dc 3d bd 5b 5d ea bc b6 c3 57 bd 61 69 61 3d
       -0.046353187 -0.028608968 -0.05267688 0.055032138
000300 aa 2a ad 3c 76 6f 89 3d 63 14 90 bd 2b 89 b0 bb
       0.021138508 0.067107126 -0.070351385 -0.0053874454
000310 45 28 14 bd 6e 98 12 bc 8a 8a 28 3c d0 01 38 3d
       -0.036171217 -0.008947475 0.010286937 0.044923604
000320 bf f5 87 3d b9 77 a4 3d fa 1b 62 3c 86 79 00 3d
       0.06638669 0.08030648 0.013800615 0.031365894
000330 42 bd fe 3a 94 db 78 bd b6 81 16 3d af e5 9a bd
       0.0019435065 -0.06075628 0.036744796 -0.0756334
000340 27 8b 47 bd 49 6e a5 3d 99 23 3a bc 5f 46 3a 3d
       -0.04871669 0.08077676 -0.011361026 0.045477267
000350 fe aa e9 bc 6f 99 ec bb 82 61 b0 bc a0 f4 6b bd
       -0.028523918 -0.007220439 -0.02153087 -0.05760634
000360 9a f0 3f 3b 78 f8 4f bd 99 7a 09 bc 70 69 2c bd
       0.0029287697 -0.050774068 -0.008391046 -0.04209274
000370 43 69 21 3a 10 6f ee 3c 96 31 88 bd fd 74 5b 3d
       0.0006157348 0.029105693 -0.06650083 0.053578366
000380 ea 07 e4 3a 15 87 67 bc 8c da d5 bc 98 24 3b 3d
       0.0017397378 -0.014131327 -0.026105188 0.045689195
000390 36 35 11 3c 4d da d5 3c 64 8a 33 3d 1e 00 0f bd
       0.008862784 0.02610507 0.04383315 -0.03491222
0003a0 bf 68 9a 3d ce b3 87 3d 8e 76 6a bd ba ea db bc
       0.0753951 0.06626092 -0.05724197 -0.026845325
0003b0 a5 e6 87 3d 12 62 62 bc 80 16 b4 bb 6b 15 33 3d
       0.06635789 -0.013817327 -0.0054958463 0.043721598
0003c0 78 bb 93 bc da 15 00 bc 4a 2e 85 3d 0f a2 bc bb
       -0.018033728 -0.00781771 0.065029696 -0.0057566236
0003d0 66 84 89 3d c6 c3 69 3d a6 46 28 3c aa d9 5b bd
       0.06714706 0.05707147 0.01027075 -0.053674378
0003e0 fa 8c 8b 3d 6d 10 a1 bd 6a 0a 56 3d 9e b2 12 3d
       0.068139985 -0.07864461 0.052256025 0.035814874
0003f0 f9 c7 f9 bc e3 58 e2 3c fe e5 89 3d 8f 2b 31 bd
       -0.030490862 0.027630275 0.06733321 -0.04325443

conv2.bias f4 [16]
000000 ec f4 9c 3d b4 d2 83 bd f8 ed 51 3b d4 81 a3 3d
       0.07663903 -0.06436673 0.003203271 0.07983747
000010 43 fe a1 bd eb 21 32 3d cf 9e 6b bd ea e1 43 bc
       -0.07909825 0.043489378 -0.0575245 -0.011955718
000020 bd 2f 56 3d 76 d9 ed bc 8c 7f e2 3c 8a e7 a0 bd
       0.05229162 -0.029034358 0.02764871 -0.078566626
000030 7f af 78 bd 72 84 43 3d 1d 3c 5d bd 33 cc 82 39
       -0.06071424 0.04773373 -0.054012407 0.00024947673

fc1.weight f4 [120, 400]
000000 8d 2b 3b bd d5 a1 06 3d 33 52 1a 3b c7 3d 16 3d
       -0.04569583 0.03286918 0.002354753 0.03668001
000010 6f 34 2c bd 33 1d 63 bc 7d 14 cc bc 47 97 43 bd
       -0.042042192 -0.013861942 -0.024912113 -0.04775169
000020 92 3f 45 bd 5d 6a fc bc 60 05 45 3d 97 05 95 bc
       -0.04815633 -0.030812437 0.04810083 -0.018191142
000030 ba 97 cc 3c 8d 88 5c bc 67 38 04 3d b5 d0 3d bd
       0.024974693 -0.013460291 0.032280352 -0.046341617
000040 1a 7b b9 3c 00 46 ca 3b 93 42 5a 3c aa c7 dc bc
       0.022641707 0.0061728954 0.013321537 -0.026950676
000050 63 72 12 3d 6a 12 14 bd 33 53 bb bc 9a 1c aa bb
       0.03575362 -0.036150374 -0.02286682 -0.005191398
000060 c2 26 3d 3d 4d 6c 4e bb 23 e0 94 3c 7b 51 03 bd
       0.04617954 -0.0031497658 0.018173283 -0.032060128
000070 6a 49 2f 3d 28 4c 0a bd d3 98 bb 3c 4d 66 82 3c
       0.042794622 -0.033764035 0.02290002 0.015917921
000080 4d 4a 0f 3c c7 b8 92 3c 3d 28 3c bd 38 6a 1c bd
       0.008745742 0.017910374 -0.04593681 -0.038187236
000090 60 01 a6 bc 40 be 04 3d 7a d3 cf 3c 5a a6 29 bd
       -0.020264328 0.032408 0.025369395 -0.04141841
0000a0 42 fe 2c 3d a0 8c fc 3c cd ce 49 bd 73 d6 26 bc
       0.042234667 0.030828774 -0.049269486 -0.010182965
0000b0 5d f2 0b 3d f5 63 22 bd 93 cc fc 3c 73 51 76 bc
       0.034166683 -0.039646108 0.030859267 -0.015034067
0000c0 05 3e 42 bd 9d 2d d7 3c d3 2f 22 bc 2f 1f 41 bd
       -0.047422428 0.026266867 -0.0098990975 -0.04714888
0000d0 40 3e f1 bc cd f4 01 bc 8d 83 7c bc 00 6a 84 bc
       -0.029448628 -0.0079319 -0.0154122235 -0.016163826
0000e0 4b 16 09 bd 90 34 10 3d c0 ef 78 3c 33 f0 01 3b
       -0.033468526 0.035206378 0.01519388 0.0019827008
0000f0 b3 19 9d 3c e7 3c 92 bb a7 07 49 3c a7 7d 74 3c
       0.019177293 -0.0044628265 0.012269891 0.014922536
000100 4d 31 99 3b 9a a8 1a 3d 5b 6b 45 3d 1a 43 78 bb
       0.0046750666 0.037758447 0.048198085 -0.0037881793
000110 9a dc 93 3c e7 7b 38 bb b8 c0 09 bd 4d b6 85 3c
       0.018049527 -0.0028150023 -0.033631057 0.01632228
000120 e7 f7 30 3d 0a ef 3d 3d 4d 13 c7 bb 6b c4 48 3d
       0.043205168 0.046370544 -0.006075299 0.049015444
000130 cd f4 66 b9 5a 20 2d bd da 4b c8 3c 2f 52 12 3d
       -0.00022025705 -0.04226718 0.024450231 0.035722908
000140 eb c1 42 bd b0 a2 b9 bc 7d 6a 8b bc d3 85 12 3c
       -0.047548216 -0.022660583 -0.017018551 0.008943039
000150 1a 47 27 bb 80 a3 06 3c 58 e5 3b 3d c0 a0 17 bd
       -0.0025524558 0.008217692 0.045873016 -0.037018538
000160 1a ed 6b 3b 3f 9b 31 bd 53 51 bc 3c 18 7a 2f bd
       0.0035999478 -0.043360945 0.022987997 -0.042841047
000170 d7 91 df 3c 6d 84 06 bc 20 5b 13 3d 8b f8 0d bd
       0.027291222 -0.008210284 0.035975575 -0.034660857
000180 77 9e 0a 3d 0d e6 8c 3c da c5 da bb df 03 0c 3d
       0.03384253 0.01719954 -0.006676418 0.03418338
000190 4d 23 f9 bb 00 20 32 39 4d 35 55 3c 63 4a 12 3d
       -0.007603085 0.00016987324 0.013013196 0.035715472
0001a0 47 ae 84 bc ea 76 d6 bc da d3 92 bc 97 fa 36 3d
       -0.016196383 -0.02617975 -0.017923284 0.044672575
0001b0 e0 6d b7 bc 4d 16 cd bc b5 b2 24 3d 85 56 1a 3d
       -0.02239126 -0.025035048 0.04020949 0.037680168
0001c0 67 dd 55 3c 13 97 c2 bc e7 82 11 3c 2d 63 38 3d
       0.013053275 -0.023753678 0.008881307 0.045016456
0001d0 1a 9a 54 bc eb 65 19 3d ad 1e bd 3c cd 08 93 3b
       -0.012976194 0.037450712 0.023085916 0.004487133
0001e0 80 d3 3f bd b3 8a 45 bc 1a 50 92 bb 33 17 1b bd
       -0.04683256 -0.012056994 -0.0044651153 -0.03786392
0001f0 cf 84 07 3d bd b1 02 3d 7a f6 97 3c 05 1a 39 bd
       0.03308564 0.031907786 0.018550146 -0.04519083
000200 fa 41 38 bd 5a 6a 8e bc a0 4e c2 bc 63 67 ad bc
       -0.044984795 -0.017384697 -0.023719132 -0.021167463
000210 8b 72 13 3d f5 25 10 bd f3 9c c6 3c 47 cf 1c bc
       0.03599791 -0.03519245 0.024244761 -0.009570903
000220 57 bf d1 3c 4d b6 ca 3b da a5 87 3b f3 56 08 bc
       0.025603933 0.0061862827 0.004139644 -0.008321512
000230 4a 4f a9 bc 2a d5 85 3c f5 2e 1d 3d a3 6a b2 3c
       -0.02066769 0.016336996 0.03837486 0.021779364
000240 57 7b 09 bd 4f d2 16 bd b8 42 34 bd d3 f5 43 3c
       -0.03356489 -0.03682166 -0.04400894 0.0119604645
000250 bd 56 b4 bc a8 f0 07 3d cd 7d 03 3b 4d a9 ae 3c
       -0.022014016 0.033188492 0.0020063997 0.021320963
000260 9d 43 85 bc 9a 78 58 bb 33 0a 88 ba 5a 31 17 bd
       -0.016267592 -0.0033030869 -0.0010379016 -0.0369123
000270 03 8d b2 bc 4d 5e fc 3b 1f fc 45 bd 3a a9 4a bd
       -0.021795755 0.007701671 -0.048336145 -0.049477793
000280 67 ff 70 3b 73 f7 1d bc 7b 1b 28 3d 67 3e e5 bc
       0.0036773325 -0.009641516 0.041041832 -0.027983857
000290 87 6a eb bc b3 04 4d bc cd f7 7b bb 67 0e b7 3a
       -0.02873732 -0.012513327 -0.0038447261 0.0013966084
0002a0 47 9f 06 3c 5b 9b 01 3d 67 14 21 3c 9b 73 1b 3d
       0.008216686 0.0316423 0.009831524 0.037952047
0002b0 33 de c9 bb 57 bf 95 bc 90 88 bd bc 70 2d 24 3d
       -0.0061605214 -0.018279715 -0.023136407 0.040082395
0002c0 33 90 9e bc 97 ea 28 3d b3 c4 14 3c 67 56 40 3b
       -0.019355869 0.041239347 0.0090801 0.0029348375
0002d0 cd 47 24 3d b3 93 4c 3c 2b 08 34 3d c0 bf 21 bc
       0.040107537 0.012486386 0.043953102 -0.009872377
0002e0 e7 f2 9a 3b 67 cb fe bc 20 25 8e bc 9a 5b 57 3a
       0.0047286632 -0.03110285 -0.017351687 0.0008215249
0002f0 4d ee 7e bc 9a 5d bc 3b 3d 1a 99 3c 5f bc 16 bd
       -0.015559745 0.005748463 0.01868927 -0.03680074
000300 73 25 e0 3c 2d 34 ef bc 2d d7 2e 3c ad 34 bf 3c
       0.027361607 -0.029199684 0.010671419 0.023340547
000310 27 e4 34 bd fb 6b 28 bd 00 cb e2 3c 67 ab 4b 3c
       -0.044162896 -0.041118603 0.027684689 0.012431002
000320 f0 53 49 bd b0 6b fa bc 93 0c 3f bc 1b 9c 20 bd
       -0.049152315 -0.030568928 -0.011660713 -0.039211374
000330 b3 0d 36 3d 87 e9 99 bc 03 f1 ec 3c ed d3 5f 3c
       0.04444666 -0.018788112 0.028923517 0.013661367
000340 c8 68 19 bd cd 6d db 3c bd a6 df bc 8d 77 81 3b
       -0.037453443 0.026785756 -0.027301187 0.003951019
000350 33 5e 9a bc e2 7a 07 bd 3a e3 8e 3c 93 a0 0c 3d
       -0.018843746 -0.033076175 0.017442334 0.034332823
000360 fb 12 15 3d 75 fd 47 3d f0 95 87 bc f0 15 00 3d
       0.036395054 0.0488257 -0.016550988 0.03127092
000370 6a 5e 8d 3c 23 2a bd 3c fa 94 be bc 73 01 cb 3b
       0.017256934 0.023091381 -0.023264397 0.006195241
000380 b3 60 c0 bc 05 ea 22 bd 53 21 1d bc 5b a3 1e 3d
       -0.02348361 -0.03977396 -0.009590465 0.038730007
000390 cb e0 04 bd 40 d2 ce 3c 17 e4 11 3d ed 06 64 bc
       -0.03244094 0.02524674 0.035617914 -0.013917667
0003a0 07 9d 6d bc 0d 70 66 3c 8a c2 87 3c 70 30 0a 3d
       -0.01450277 0.014064801 0.016572256 0.0337376
0003b0 cd b8 86 39 40 fd b5 bb 5a e3 ae 3c e8 71 24 bd
       0.0002569616 -0.0055538714 0.021348644 -0.040147692
0003c0 30 38 d0 3c 70 98 35 bd d7 32 fe bc 32 47 3f bd
       0.025417417 -0.04433483 -0.031030102 -0.046698757
0003d0 2b ae 0d bd 80 f4 f2 bb c5 b8 15 3d 40 ab e9 bb
       -0.034589928 -0.0074144006 0.036553163 -0.0071310103
0003e0 80 3e f1 3b 05 6f 1c 3d d7 0e 10 bd 60 1d 3c 3d
       0.007362187 0.038191814 -0.035170402 0.04592645
0003f0 30 fa ef bc a7 6b 4c bd 8a 99 4b bd d0 02 45 3d
       -0.029294103 -0.049907353 -0.049706973 0.048098385

fc1.bias f4 [120]
000000 a0 c8 94 bc 43 f5 14 bd d3 16 c7 bc 40 50 2b bc
       -0.018162072 -0.036366712 -0.024302876 -0.010456145
000010 b3 65 ca 3c d7 49 f0 3c 7a ec 7e bc fd 56 10 bd
       0.024706697 0.029332085 -0.01555931 -0.03523921
000020 60 77 15 3c 40 97 10 bd 27 2f 42 3d d3 0e a4 bc
       0.0091226995 -0.035300493 0.04740825 -0.0200266
000030 0d c4 54 3c e0 c3 65 bc 42 39 27 3d 37 36 e5 3c
       0.012986195 -0.014023751 0.04082609 0.027979953
000040 73 8e 76 bc b0 b6 85 bc 10 c8 9a bc ca 02 a1 bc
       -0.015048611 -0.016322464 -0.018894225 -0.01965465
000050 ea 93 c1 3c 4d 92 fa bb c7 7c 62 bc 83 44 df 3c
       0.023630101 -0.007646835 -0.013823695 0.027254349
000060 b0 35 8f bc 95 bf 09 3d 0f 48 49 3d 9a 81 d5 bc
       -0.017481655 0.033629972 0.049140986 -0.026062775
000070 15 ef 3e 3d 7a f2 bf 3c b7 32 d6 3c 10 3c dc 3c
       0.046614725 0.023431052 0.02614723 0.026884109
000080 2b 7b 49 bd 2a a1 08 bd 4d 9a ba 3c 33 ed fd 3b
       -0.049189728 -0.033356823 0.022778654 0.0077492236
000090 80 b2 c3 bb 80 d0 b4 3c bf f6 3f bd 0f da 01 3d
       -0.0059722066 0.022072077 -0.046866175 0.031702098
0000a0 b7 27 97 bc 33 e8 03 bc 45 7f 15 bd 9d 7e a9 3c
       -0.018451555 -0.008050966 -0.036498327 0.020690257
0000b0 83 51 ab bc 07 25 28 bd 8d fd cb 3c 5d 77 24 3d
       -0.020912891 -0.041050937 0.024901176 0.040152896
0000c0 f5 a0 41 bd ed 22 00 bc 5d 92 f5 bc 13 39 3c 3c
       -0.04727264 -0.007820827 -0.029977018 0.011488217
0000d0 80 b6 d5 3b c0 52 73 3c 00 08 68 3b d5 27 35 bd
       0.006522 0.014851272 0.003540516 -0.04422744
0000e0 32 fb 40 3d d0 9d 41 bd c0 15 47 3d 67 c7 8f 3b
       0.04711456 -0.047269642 0.048604727 0.0043877843
0000f0 67 2c 2c 3d 12 d5 41 3d cf 6d 47 bd 43 c5 a4 bc
       0.042034533 0.04732234 -0.048688706 -0.020113593
000100 73 3f b9 bc fb ef 28 bd 9a ce f6 bb 00 7c dc 3a
       -0.022613263 -0.04124449 -0.007531953 0.0016821623
000110 3d d0 12 3d fa ca 3b 3c 73 a9 d9 bc 7f a5 06 bd
       0.035843123 0.011461968 -0.026570057 -0.032872673
000120 63 43 3f bd 60 3d 26 3d 4d 2a 15 bd e3 12 d9 3c
       -0.046695124 0.040585876 -0.036417294 0.026498264
000130 ad 61 28 3d da ff 2f bc b0 50 2a 3d 17 2c 9c bc
       0.041108776 -0.010742152 0.041580856 -0.019063992
000140 3f fe 3b bd 73 33 29 3d 67 f3 ac bb 33 0a 30 bc
       -0.045896765 0.04130883 -0.0052780393 -0.010744619
000150 6d 28 cb bc 2d b2 cb bc e7 2e fc bc 00 60 2a bd
       -0.02479955 -0.024865234 -0.030784084 -0.04159546
000160 7d 6d 23 bd 28 7e 1b bd 6d 4c bb 3c 2d 14 4d bc
       -0.039899338 -0.03796211 0.022863591 -0.012517017
000170 67 75 09 3b e0 81 01 3c fa 96 8d bc fb 03 2a 3d
       0.0020974518 0.0079045 -0.017283905 0.041507702
000180 0d 4b 15 3c 33 77 ed 3b eb 1e 35 3d 60 6c 25 bc
       0.009112132 0.0072468757 0.04421894 -0.010096639
000190 67 49 d3 bc 27 b0 d3 3b 03 d4 a3 bc 27 04 49 3c
       -0.025791837 0.006460208 -0.019998556 0.012269056
0001a0 f3 6e 12 3d ad 56 13 3d b2 f0 2a bd 7d 8f 40 bd
       0.03575034 0.035971332 -0.04173345 -0.04701184
0001b0 87 3a 6b bc 30 dc ed 3c c0 2a 38 bd f7 a9 97 3c
       -0.014357216 0.029035658 -0.044962645 0.018513663
0001c0 83 9b e5 bc fd f6 c0 bc 47 8a 55 bc 9a 79 06 3d
       -0.028028255 -0.023555273 -0.013033456 0.032830812
0001d0 da 2b 4f 3c 93 e5 10 3c c0 ee 13 3d 3a da 39 bd
       0.012644732 0.008843797 0.03611636 -0.045374133

fc2.weight f4 [84, 120]
000000 32 ab 61 bd 13 26 93 3d ea 93 b6 bd ee ab 9e 3d
       -0.055094905 0.071849965 -0.08914931 0.07747637
000010 3d 30 2e 3c d8 65 5e 3c 14 41 69 3c c2 03 a7 3d
       0.010631618 0.013574086 0.014236707 0.081550136
000020 d6 94 43 bd 85 d3 7d 3c cc 79 ae 3d a4 e4 af 3d
       -0.047749363 0.015492325 0.08519325 0.085885316
000030 00 19 34 bd 82 16 0f bd 04 8e b2 bd 90 4b 94 3b
       -0.043969154 -0.034933574 -0.087184936 0.0045256093
000040 0a e9 19 3d 28 7a ba 3d 5a 75 b6 bd e3 ac 4d bd
       0.03757576 0.09105331 -0.08909102 -0.050213706
000050 62 1d db bc 2c 09 0c bc ce a8 a3 bc 15 fa a9 bd
       -0.02674741 -0.008547109 -0.019977953 -0.082996525
000060 3d 56 04 bc 42 30 65 bd 73 ce 80 3b 00 56 d9 3c
       -0.008077201 -0.055954225 0.0039308607 0.026530266
000070 0c 3d 73 3d 38 fb 60 3d 02 38 78 3d 75 fa 81 3d
       0.05938439 0.05492708 0.06060029 0.06346599
000080 bf bc 42 bc bb 72 f8 bc a7 b1 33 bd 0b f5 86 3d
       -0.011885821 -0.030328145 -0.043870594 0.06589707
000090 2e ef 3d 3d e9 28 9a bd 87 72 e1 3b a9 29 33 bd
       0.046370678 -0.07527334 0.006880108 -0.043740902
0000a0 0f 2b 7c 3d 36 71 aa bd 2e c9 20 3d 77 95 55 3d
       0.0615645 -0.083223745 0.03925436 0.052144494
0000b0 5b 12 72 3d 57 c9 19 bc ff 7b 96 3c 94 12 0a bd
       0.059099536 -0.009386382 0.018369673 -0.033709124
0000c0 fb 56 a6 3d 71 f5 a3 ba cc 61 60 bd a6 44 d7 3c
       0.08122059 -0.001250906 -0.054780766 0.026277851
0000d0 16 c8 72 3d cd e7 a0 3d eb 38 70 3d 1f 92 32 3d
       0.059272848 0.078567125 0.05864803 0.043596383
0000e0 0b 02 7e bd 94 33 9b bd f1 c0 60 bd 36 b5 a9 bd
       -0.062013667 -0.07578197 -0.054871503 -0.08286516
0000f0 a8 72 0d 3d c4 43 28 3d df a7 19 3d 17 28 31 bd
       0.034533173 0.04108025 0.03751361 -0.043251123
000100 e4 23 87 3d fb 4d b9 3d c3 ab 32 bc 33 7c ce 3c
       0.065986425 0.09048077 -0.010905209 0.025205707
000110 9f 89 c0 bc 00 a5 86 3d b4 4d ab bd e8 87 74 3d
       -0.023503123 0.0657444 -0.0836443 0.059699923
000120 08 38 6d bd d3 79 49 bd 03 92 3e 3b ee 93 0d 3d
       -0.057914764 -0.049188446 0.002907873 0.034564905
000130 08 d1 55 bd 05 3b f8 3c 2f 65 92 bd 68 23 56 bc
       -0.0522013 0.03030158 -0.071482055 -0.013069965
000140 ae 24 9b bd 1a 17 b7 bd df 84 9c bc e2 3e ac 3c
       -0.075753555 -0.08939953 -0.019106327 0.021026079
000150 6e ec 88 3d e8 d3 56 bd c8 5c 62 3d 92 e3 4d 3d
       0.066857204 -0.052448183 0.055264264 0.050265856
000160 a9 d1 16 3d c1 11 80 bd dd 34 f2 bc d6 f9 64 bd
       0.03682104 -0.06253386 -0.029566223 -0.055902325
000170 c7 b1 b3 3d 7c 37 f5 bb cd ff bf bc 69 44 49 3d
       0.08774143 -0.007483421 -0.023437405 0.049137507
000180 cf 98 ae 3d 12 28 0f 3c 66 33 b2 bc d0 ab 96 bd
       0.0852524 0.008737581 -0.021753024 -0.073569894
000190 fa 2e 13 bd 13 d4 55 3c c4 df e5 bc 41 3b ba bd
       -0.035933472 0.013051051 -0.028060801 -0.09093333
0001a0 52 c1 da 3c 84 dd 83 bd d9 07 9e bd 9d c0 99 bd
       0.02670351 -0.06438735 -0.077163406 -0.07507441
0001b0 ee e7 23 b8 ba 6d 73 3d 8b e2 d8 bb 56 fb 5e bd
       -3.907823e-05 0.059430815 -0.006618803 -0.05443891
0001c0 f7 68 44 3d a2 43 b7 3d 59 48 18 bd 8f 7f 3a 3c
       0.047951665 0.08948447 -0.03717837 0.011382951
0001d0 be 6c 05 3d 3f 4c 61 3d 0f ff f8 bc c7 49 b0 3d
       0.032574408 0.055004355 -0.030395059 0.08607822
0001e0 c7 ba 00 3d 7a 30 b8 3d c0 2b aa 3d 3a e9 45 bd
       0.031428125 0.08993621 0.08309126 -0.048318125
0001f0 e6 10 7d 3d 19 7f 8a 3d 5a 1f 82 bd 39 0f 62 3c
       0.061783694 0.06762523 -0.06353636 0.013797575
000200 35 83 8e bd 0a 69 58 3a 31 34 10 3d 97 b0 84 bc
       -0.069586195 0.0008255398 0.035206024 -0.016197486
000210 9b 44 ed bb f4 98 5e 3d ef 82 82 bd 58 d4 8d 3c
       -0.0072408444 0.054345086 -0.0637263 0.017313167
000220 71 41 cd bc b6 3f 7c 3c 1d a0 87 3d 5c 70 44 3d
       -0.025055619 0.015396049 0.06622336 0.047958717
000230 98 54 4b 3d 83 a6 58 bd 09 a7 7b bc c5 0a 97 bc
       0.04964122 -0.052893173 -0.0153596485 -0.018437753
000240 fc 86 92 3c 95 fe f8 3c 35 5f 55 bd 4a 39 ab bd
       0.017886631 0.030394832 -0.05209275 -0.083605364
000250 3b 52 b7 3d 23 27 91 3d b6 49 28 bd 7a 64 5f 3d
       0.08951231 0.07087543 -0.04108592 0.05453918
000260 bc 96 52 3c d3 6e b1 3d a5 4d 35 bc 90 9d 74 bd
       0.012853321 0.08663716 -0.011065875 -0.059720576
000270 90 f9 8b bd 6b 73 af bc 83 57 4d bd 81 57 e7 3b
       -0.0683471 -0.02141734 -0.050132286 0.007059992
000280 f2 09 81 3c cd 72 2c bd 74 c0 6f 3d 38 6d 08 bd
       0.015751813 -0.04210167 0.058533147 -0.033307284
000290 60 3d ba bc 8f 9d 3a 3d 05 d8 8a 3d 89 b6 39 bd
       -0.022734344 0.045560416 0.06779484 -0.045340095
0002a0 a1 36 52 3d e5 03 82 bd 1f 92 82 bd 87 c3 00 bd
       0.05132163 -0.06348399 -0.06375527 -0.03143647
0002b0 32 05 ae 3a 62 7a 22 bd 1f d8 25 3c 60 d5 a0 bc
       0.0013276695 -0.039667495 0.010122328 -0.019632995
0002c0 ac 3e c3 bc bb 3b a4 3b 11 ab 6e 3d 31 4c 6c bd
       -0.023833595 0.0050120032 0.05826861 -0.05768985
0002d0 5b d2 08 bc d0 02 16 bd d8 5b 90 bb 19 33 b0 bc
       -0.008350934 -0.036623776 -0.00440548 -0.02150874
0002e0 97 6f bc 3c 4b 7e 98 3d 8e 90 81 3d 47 3c 27 3c
       0.023002429 0.074459635 0.063264 0.010207242
0002f0 dc ac 87 3d 29 1c 76 37 3d ff a0 bd c6 b5 a9 bd
       0.06624767 1.4669299e-05 -0.07861183 -0.08286624
000300 b7 43 1c bd 6a 26 0b bb 70 7a d7 3c 55 fa a2 bd
       -0.038150515 -0.0021232613 0.0263035 -0.07957903
000310 5d 2f ef ba b7 5e 6a 3d 96 f6 01 3d c3 18 65 bc
       -0.0018248368 0.057219233 0.031729303 -0.013982954
000320 35 43 81 3d 5c 18 56 3d aa b4 93 bd 08 a1 aa bd
       0.06311647 0.052269325 -0.07212193 -0.083314955
000330 63 bf 47 3d d7 91 b3 bd 66 c5 3f bd 28 fe ab bd
       0.048766505 -0.08768051 -0.046819113 -0.08398086
000340 71 91 cc 3c 6f e4 89 3d b2 13 8f bd 3e 06 06 bd
       0.024971696 0.067330234 -0.069861785 -0.032720797
000350 2a d6 9d 3d 56 e8 a9 bd dc c3 82 3d db 09 4b bd
       0.07706864 -0.08296268 0.063850135 -0.049569946
000360 08 db a2 bd c1 eb 8f bd 13 e0 29 bc 7f 10 3d 3d
       -0.07951933 -0.07027388 -0.010368365 0.04615831
000370 4a e2 9d bd d3 0e 9b 3c 1a 61 4f 3d cb f1 1d 3c
       -0.07709177 0.018927967 0.050629713 0.0096401675
000380 79 35 46 3c 82 13 ab bc 32 fa 30 3c 91 cf f8 3b
       0.01209771 -0.020883325 0.010801839 0.007593103
000390 37 e0 27 3d e7 69 17 bd c1 8d e7 3c ae 9c 61 3d
       0.040985312 -0.03696623 0.028265836 0.055081062
0003a0 4a 4d 89 bd 25 d4 9e 3d 47 1e 74 bc 66 29 7e bd
       -0.06704195 0.07755307 -0.014899797 -0.0620512
0003b0 10 e4 59 3c 20 4f b1 3d 23 34 5b 3d 0b f9 88 bd
       0.013299003 0.0865767 0.05351652 -0.06688126
0003c0 e6 68 5e 3c 88 a7 89 3d ec b5 68 3d 62 54 b7 3c
       0.013574814 0.06721407 0.05681412 0.022379104
0003d0 55 4e 25 3d 6d 15 79 bd 2e df af bd 7a 92 f2 bc
       0.040357906 -0.06081145 -0.0858749 -0.029610861
0003e0 10 4f a3 3d dd 40 df 3c 56 4d 75 bd a9 fc 69 bd
       0.07974064 0.027252609 -0.059888206 -0.05712572
0003f0 54 0f bf 3c 5d 84 dd bc 48 6b cf 3c ae d1 75 3d
       0.023322739 -0.027040655 0.02531971 0.06001442

fc2.bias f4 [84]
000000 c1 af 7f bd ec cd c9 3b 07 07 8c 3c ec a7 be 3b
       -0.06242347 0.006158581 0.017093195 0.0058183577
000010 d9 23 4b bd 0b 9f b2 bd b0 89 b2 bd d2 4b 64 bd
       -0.049594734 -0.08721741 -0.08717668 -0.05573637
000020 93 df 7b bd 36 35 7f 3d b4 3f f5 bb 64 43 f6 bc
       -0.061492514 0.062306605 -0.0074844006 -0.030061431
000030 74 79 5d 3c ac 6a 46 bd ea 91 b3 3d dd 4d 84 bd
       0.013517726 -0.048441574 0.08768065 -0.06460164
000040 4d 3f f1 3c ea 0e 4c 3d c3 ed a4 3c 05 fb c6 bb
       0.02944913 0.04981891 0.020132905 -0.0060724043
000050 a4 e8 a1 bd ae 2d b4 3c ac b3 b3 3b a1 24 53 bd
       -0.07905701 0.021994438 0.005484065 -0.051548604
000060 ee 6e a3 bd 54 62 74 bb 46 0a a5 bd 65 71 04 bc
       -0.079801425 -0.0037290053 -0.080586 -0.008083676
000070 c5 33 c5 bb 50 a0 9b bc a3 71 88 bc b1 d4 89 bd
       -0.0060181343 -0.018997341 -0.016655749 -0.06730021
000080 3d 59 ad 3d 06 61 53 3c 73 25 87 3d 62 3a 0b 3d
       0.084642865 0.01290155 0.0659894 0.033991225
000090 84 35 6c 3d 42 be 80 bd e3 ef ba 3d e9 8b 5f bd
       0.057668224 -0.06286289 0.09127786 -0.054576788
0000a0 8d 81 f4 3b 10 9c 48 bd 57 26 86 3d f1 43 6d bd
       0.0074617327 -0.048976958 0.065502815 -0.057926122
0000b0 6a 82 80 bd 5a 13 d7 bc 28 4c 8a bd f0 d2 6b bc
       -0.062748745 -0.026254345 -0.06752807 -0.014393553
0000c0 1d 46 86 bd 78 fd 97 3d ac 4b c4 bc df af 56 3d
       -0.06556342 0.07421392 -0.023961864 0.052413817
0000d0 49 2d a4 3d f5 7c 17 3d 2c 2f 87 bd 38 96 bd 3c
       0.0801645 0.036984403 -0.06600794 0.023142919
0000e0 2d ab e9 3c 75 37 fe bc df 2a 29 bc 1d 37 14 bb
       0.028524006 -0.031032303 -0.010325163 -0.0022615858
0000f0 6a 72 85 3c 6d 19 15 3d fe 60 b0 3d db a1 1c bc
       0.016289908 0.0364012 0.0861225 -0.009560074
000100 d9 08 31 3c 7a 71 16 bd 51 25 15 bd 69 05 0a 3d
       0.010805332 -0.036729313 -0.03641254 0.033696566
000110 2d 36 08 bd e0 b7 6c 3d 63 9c 2d bd d2 2a a3 bd
       -0.03325479 0.057792544 -0.04238547 -0.07967152
000120 61 87 57 3d f9 30 82 3d 2a 05 88 3d 92 84 ae bd
       0.05261934 0.06356997 0.0664161 -0.085213795
000130 9e 5c 60 3d 9a d7 9c bd 17 f9 85 bd a7 ed 48 3d
       0.054775827 -0.0765831 -0.06541651 0.049054768
000140 b0 ac fc 3c f5 e0 2a bc 84 e6 78 3d cb 4c 9a 3c
       0.030844063 -0.0104296105 0.06076671 0.018835446

fc3.weight f4 [10, 84]
000000 0b a4 db bc a6 64 3d bd 0c f1 38 bd 17 6f ef 3c
       -0.02681162 -0.046238564 -0.045151755 0.029227776
000010 e7 00 0b 3c be 37 21 3d 7f 20 89 3c b6 31 95 3d
       0.008484102 0.0393598 0.016739128 0.07284872
000020 5f 9c dd bc d2 16 bc bd 16 0d 7f 3c 5b 40 b4 3d
       -0.027052103 -0.0918404 0.015567085 0.08801337
000030 79 3d 73 bd 0b 3d 68 bd 44 ec 4b 3d ce 9f de 3d
       -0.059384797 -0.05669884 0.049785867 0.10870324
000040 b4 1c 64 3d 15 c7 d5 3c 30 06 b8 3c 37 ae a0 3d
       0.055691436 0.026095906 0.022463888 0.07845729
000050 73 90 c8 3d 5d f5 90 bd 31 76 d1 bc b3 c0 19 3d
       0.097931765 -0.07078049 -0.025569053 0.037537288
000060 7f 67 bc bd 27 6b b7 bd 92 4c d4 bd 94 6c 1c 3d
       -0.09199428 -0.089559846 -0.10366167 0.038189486
000070 d2 28 19 bd 05 6d c9 3d 7b d6 8c bc ae de d0 bd
       -0.037392445 0.09835247 -0.017192116 -0.10198723
000080 ef 4e 57 3d c8 dc b7 bc 3e c2 b6 bc a0 9f ad 3d
       0.05256551 -0.022444144 -0.022309419 0.08477712
000090 d5 49 16 bc ea 2b 15 bc 31 7d 06 3d 9a a1 3c 3c
       -0.009172876 -0.009104708 0.032834236 0.011513138
0000a0 31 db 05 3b 0c b5 11 bd 72 f3 38 3d 85 18 9c 3d
       0.0020424838 -0.03557305 0.045154043 0.07621864
0000b0 dc b6 b0 3c 75 64 64 bd 54 81 e9 3c 13 dd a8 bd
       0.02157157 -0.055759866 0.028504051 -0.082452916
0000c0 99 b9 d0 3d dc 51 da 3d f7 0a 94 3d fa 73 27 bc
       0.1019165 0.10660145 0.07228654 -0.010220522
0000d0 ee 10 35 3d 97 41 86 3d 97 3c 28 3d 97 42 e1 bb
       0.0442056 0.06555479 0.041073408 -0.006874393
0000e0 29 2a 32 3b 1a f6 dc 3d ab 1a 95 3d 44 71 6c 3d
       0.0027185774 0.10789128 0.07280477 0.057725206
0000f0 1b 20 2e bd bd 67 36 bc 54 2b 5a 3d cb 59 15 bd
       -0.042511087 -0.011133132 0.053263977 -0.036462586
000100 51 6d a0 3c c9 ad fc bc ee 90 89 3c 7f 64 c2 bd
       0.019583376 -0.030844586 0.01679274 -0.09491824
000110 30 91 85 3c be 94 2a 3d 19 a2 d5 3d 86 cd ba bd
       0.016304582 0.041645758 0.10431308 -0.09121232
000120 78 3d 51 bd 45 f6 f9 bc 4b a2 fe 3c 34 7e a6 bd
       -0.05108401 -0.030512938 0.031083247 -0.0812954
000130 c6 9f 4d 3d b3 9a 71 3d ab 2a 69 3b e3 04 1b 3b
       0.0502012 0.058985423 0.003557841 0.0023654036
000140 ae 87 c5 bd f6 71 e4 bc 02 d0 20 3d 70 03 2a 3d
       -0.096450195 -0.027886372 0.03926087 0.041507185
000150 98 83 ce 3d 02 5b 93 bd c1 19 c7 3d 32 f0 8a 3d
       0.10083693 -0.07195093 0.09721709 0.06784095
000160 8d 37 aa bc 31 af 06 bc 42 ee 17 bd e0 5e 43 3d
       -0.020778442 -0.00822048 -0.037092455 0.0476979
000170 d7 f4 83 3d 3a 2a 02 bd 36 2a 3b 3d 6d 0d 89 3d
       0.06443184 -0.03177855 0.045694552 0.06692014
000180 c3 cf 1f 3d c1 fc a9 3d 52 0d 93 bd 6e 9c 75 bd
       0.039016496 0.08300162 -0.07180275 -0.059963636
000190 e4 16 dc 3d 5f 03 3a 3d b9 52 c3 bd 8a e5 bf 3b
       0.107465535 0.04541337 -0.095372625 0.0058562206
0001a0 13 25 e1 3c 84 b0 d6 bd e2 5d dc bc e4 22 02 3b
       0.027483499 -0.104828864 -0.026900236 0.0019857222
0001b0 31 24 dd bd 73 0d d5 bd b3 0e 6c 3c e6 72 83 bd
       -0.107979186 -0.10402956 0.014407801 -0.064183995
0001c0 cb 38 d9 3d 98 7e 07 3d 80 13 3c 3d 6b 79 1a bd
       0.106065355 0.033079714 0.045917034 -0.03771345
0001d0 27 48 97 3d 84 b0 cd bd 7f e9 5d bd ec 94 32 bc
       0.07386809 -0.10043433 -0.054177757 -0.010899764
0001e0 88 0e 96 3b f8 ff 10 bd ea 0f db bd e3 d7 bf 3d
       0.004579369 -0.03540036 -0.10696395 0.09367349
0001f0 67 37 bf 3d 93 15 26 3a 06 0b c7 bc f5 16 32 3b
       0.09336739 0.0006335612 -0.024297249 0.0027174328
000200 ed e2 8c bd 58 d7 20 bd b6 19 c1 bd 94 00 b9 bd
       -0.0687922 -0.039267868 -0.09428732 -0.090333134
000210 05 1a 83 3d c0 e3 4d 3c d2 97 09 bd ca 5f 05 3d
       0.06401447 0.012566507 -0.033592053 0.032562055
000220 c6 91 d9 3d 0a 4a 00 bd 6d cb 58 3d 56 5e a9 3d
       0.10623507 -0.03132061 0.052928377 0.08269946
000230 a0 6d 45 bd ab c4 af bd 45 5f d2 bd 86 ca 3a bb
       -0.04820025 -0.08582433 -0.102720775 -0.002850206
000240 25 9c 75 bd 8c a7 86 3d 2c 33 c0 3d 9b a3 a6 bd
       -0.059963364 0.06574926 0.0938476 -0.08136674
000250 c2 87 b9 bd f0 4c a7 3d 2c b7 c4 3d ea f2 64 bd
       -0.09059097 0.081689715 0.0960525 -0.055895723
000260 5e 9d d1 bd 7a 53 16 bd b7 6c db bd 6d f1 87 3d
       -0.102350935 -0.036700703 -0.10714095 0.06637845
000270 45 f7 b7 3d 7c 0e 8b bd 36 e2 5a bd 31 80 2e bd
       0.0898271 -0.06789872 -0.053438388 -0.04260272
000280 a0 1d bb 3d 60 1d d2 bc 78 16 d1 3d aa 8f 68 bd
       0.0913651 -0.025648773 0.10209364 -0.056777634
000290 78 25 c7 bd b3 10 d3 3d 81 ba c3 bd 7c 59 5e 3d
       -0.097239435 0.103059195 -0.09557057 0.054284558
0002a0 09 22 23 bd 76 b2 85 3d 7a 43 d6 bd 88 3b c6 bd
       -0.03982738 0.06528179 -0.10462089 -0.096793234
0002b0 a3 b1 39 bd b0 40 63 3d 09 08 0f 3c 30 a6 21 bb
       -0.045335423 0.055481613 0.008729943 -0.0024665706
0002c0 27 00 86 3d 97 4b 3e 3d f7 6d b3 bd 6e b1 05 3d
       0.06542998 0.046458807 -0.087612085 0.032639913
0002d0 17 40 d5 bc f5 b3 30 bd 47 b1 d4 3d f6 d7 b3 3d
       -0.026031537 -0.04314037 0.103853755 0.08781426
0002e0 98 aa 2d bd 20 2e 63 bc ab cc b0 3d 46 fa 92 bd
       -0.04239902 -0.0138659775 0.08632787 -0.07176642
0002f0 94 fd f1 bc cb 6b 01 bd 6a c6 c4 bd 12 35 20 bd
       -0.02953986 -0.03159694 -0.09608157 -0.03911311
000300 6d 3a c2 bd 35 04 6e bd e7 d2 2c bd 6d 9e 07 bd
       -0.094838 -0.05810948 -0.04219332 -0.03311007
000310 53 3e 2f bb 75 c2 0c bd e4 d9 cd 3d e7 3a 86 3d
       -0.002674003 -0.034365136 0.10051325 0.065542035
000320 f0 c6 92 3b a1 98 89 3d 19 90 83 3d db 92 ac 3d
       0.0044792816 0.06718565 0.06423969 0.08426448
000330 af 32 95 bd 22 ff 15 3d 2e 2c 88 bd 87 63 28 3d
       -0.07285058 0.036620267 -0.066490516 0.04111054
000340 ea 6a 9f 3d 3d 45 ad bd d1 60 3d 3b 45 6e de bd
       0.07784064 -0.08460472 0.0028896818 -0.10860876
000350 0a 1e 9b 3c e4 78 7d bd 4d 47 26 bd e6 c3 1f bd
       0.018935222 -0.06188287 -0.04059534 -0.039005183
000360 6e e5 bf bd 52 03 01 bd 13 19 92 bc 49 69 94 3d
       -0.09369932 -0.031497307 -0.017834222 0.07246644
000370 66 fd 89 3d 80 bf 92 bd 9a 88 0c 3c b6 3b 9a 3d
       0.06737785 -0.07165432 0.00857749 0.0753092
000380 e3 b0 76 3d 92 da c2 3d 4f 51 9e 3d 14 a6 cd bc
       0.060227286 0.09514345 0.07730352 -0.025103606
000390 b0 9f 83 3d 45 1a c6 bd c4 88 08 bd c4 dd bb 3d
       0.06426942 -0.09672979 -0.033333555 0.09173158
0003a0 a0 f7 bf 3d 02 9a b9 3d 17 7a db bd d7 2e 24 3d
       0.093734026 0.09062578 -0.10716646 0.040083732
0003b0 b3 ec de bd 83 1c d5 3d 89 2f 86 bb 6e 8f c6 bc
       -0.108849905 0.10405829 -0.004095022 -0.024238314
0003c0 09 43 5d 3b 55 76 fb bc c3 64 cb 3d 60 35 27 3d
       0.003376188 -0.030696074 0.09931328 0.040822387
0003d0 28 e4 9e 3d ef 5a 0e bc 6a dc 83 3d 3c fe 88 bb
       0.07758361 -0.008688672 0.06438525 -0.0041806977
0003e0 b0 cb d1 bd e5 6a d2 bd 89 04 2c bc 2c 4b 9e bc
       -0.102439284 -0.10274295 -0.010499128 -0.019322954
0003f0 46 08 8d 3d 9c ca 84 bc be 74 e4 3c 03 78 c7 bd
       0.06886344 -0.016209893 0.027887698 -0.09739687

fc3.bias f4 [10]
000000 12 8d 6d 3c 69 fa d2 bd 2d ec 45 bd 88 dd 14 3d
       0.014498966 -0.10301668 -0.048320938 0.03634408
000010 87 7c 3e bd c6 f4 d7 bd b8 ff 9a bd 5c b5 b9 bc
       -0.046505477 -0.10544734 -0.07568306 -0.022669487
000020 03 3b 68 bc df 52 86 3d
       -0.014174226 0.06558775
